pixel_label_quant/networks/checkpoint_74.pt4.pt (torch, 495592 bytes, 20 tensors)

conv1.weight f4 [32, 3, 5, 5]
0.016652633 -0.012426455 -0.0462423 0.019201964 0.045353174 -0.0014358195 -0.012035019 -0.06327443
-0.05516116 -0.026652982 -0.0045851152 0.021098211 0.04695011 0.056882046 0.0066224337 -0.037124965
-0.009751513 0.013006051 0.034959093 0.045068193 -0.005579002 -0.053018343 0.02788767 0.043250773
0.036491822 0.043032322 -0.009150021 -0.0007057237 -0.0478552 -0.018494079 0.05834225 -0.01229332
-0.037401523 -0.023633294 0.05398202 0.0631446 -0.028395228 0.029742569 0.016702488 0.050275076
-0.033801742 -0.05153657 -0.06101508 0.06281155 0.05402302 -0.052270375 -0.012658847 0.029088078
-0.026873104 -0.023847435 0.03319876 -0.0198431 -0.06029814 -0.01737131 0.053325694 -0.012700306
-0.06025104 0.015232319 0.0039710994 0.010611399 0.03191631 0.048663322 0.022100028 -0.008328724
0.0035745115 -0.020562554 0.031670514 0.036063675 -0.05597363 0.03738187 -0.037326176 -0.04160515
-0.058202256 -0.026096275 -0.020073727 -0.06547587 0.034866706 0.005128218 -0.029820945 -0.041188333
-0.018745508 0.047416095 -0.032459345 -0.022771114 0.0007515447 0.033658266 0.056159403 0.050007664
-0.05239936 0.017824354 0.0106289545 0.0026769743 -0.009053789 0.0029945024 0.0005416276 -0.0134219825
0.0584169 0.012126258 -0.059521854 0.04181238 -0.049959276 -0.060647007 -0.027423343 -0.0576703
-0.01666452 -0.044677865 -0.02022804 -0.026248168 0.031221382 0.008742903 0.050504047 0.008874066
0.04079789 0.033931445 -0.0016735728 -0.0058943066 0.030162666 0.017910331 -0.045505952 -0.03415708
-0.01982734 0.048314374 -0.010433639 -0.030407548 0.049548507 0.020281067 0.0029130576 0.042499
0.025974376 0.0026510407 0.032829702 -0.046939336 0.020368623 0.038382154 0.04301102 -0.013470059
0.009942891 -0.035990532 0.053248443 -0.04810239 0.011047916 0.033677593 -0.038613576 0.038952388
-0.027131202 0.054546826 0.0017413116 -0.0339696 0.030708741 -0.055605914 0.022186633 0.025914844
0.0114736045 0.009666835 0.06333764 0.014278314 -0.035570912 -0.0004247107 -0.046010345 -0.04475532
0.048602726 0.041500315 0.0006498137 -0.0072515598 0.059795886 -0.03305287 0.03513298 -0.003490441
0.05544287 0.0013507357 -0.0036102487 -0.057136994 -0.026603436 0.040858727 0.033325046 0.0067033656
0.050184906 -0.00057106855 0.0136666 0.04782635 -0.058640834 -0.060949232 -0.011895153 0.015050437
-0.051446646 -0.050894294 -0.04792525 0.03601685 0.008337177 -0.033339255 -0.02691002 -0.059123788
-0.05688644 0.047833867 -0.019091865 -0.055683374 0.04917856 0.014033732 0.043481134 0.048434045
0.0009705417 0.0011098374 0.039100777 0.019663632 0.005957815 -0.03329224 0.0020681478 -0.026535403
-0.05607209 0.015191878 0.025794094 0.037404865 -0.04581798 0.0043516313 0.017922554 -0.049914733
-0.020947954 -0.039277747 0.038762588 0.008051135 0.03636752 -0.04032608 0.012650531 0.034985375
-0.008156282 0.05615374 0.05297664 -0.036722798 0.053692214 0.010809149 -0.06329144 0.01730427
0.0061116475 -0.013446518 -0.020075295 0.0064384094 0.0023543057 0.036203377 -0.04548996 -0.045890294
0.059165243 0.06990515 0.06888366 0.030490851 0.050769538 0.012389483 0.027518075 -0.011419227
0.010187491 0.008853126 -0.0020225362 -0.032384347 -0.032254774 -0.0057760575 0.06302594 -0.02059195
00000000: 1a6b 883c 5498 4bbc 9168 3dbd 704d 9d3c
00000010: 40c4 393d 1c32 bcba 872e 45bc 0696 81bd
00000020: abf0 61bd 5b57 dabc bc3e 96bb 28d6 ac3c
00000030: c24e 403d 26fd 683d 0001 d93b 5910 18bd
00000040: cfc4 1fbc 5517 553c 4431 0f3d 6d99 383d
00000050: 10d0 b6bb c329 59bd af74 e43c b927 313d
00000060: 7378 153d a942 303d f8e9 15bc 5100 39ba
00000070: d003 44bd e580 97bc 48f8 6e3d ec69 49bc
00000080: 5732 19bd 9c9a c1bc 401c 5d3d f551 813d
00000090: 1c9d e8bc b0a6 f33c a8d3 883c 3ded 4d3d
000000a0: b273 0abd 0318 53bd f3ea 79bd 58a3 803d
000000b0: 3e47 5d3d 7619 56bd 0d67 4fbc 1f4a ee3c
000000c0: fc24 dcbc b25b c3bc 6cfb 073d ff8d a2bc
000000d0: 2ffb 76bd 474e 8ebc 0b6c 5a3d f214 50bc
000000e0: cbc9 76bd fa90 793c ff1f 823b 6fdb 2d3c
000000f0: adba 023d 3153 473d 1e0b b53c 3375 08bc
00000100: 5a42 6a3b cd72 a8bc f1b8 013d 81b7 133d
00000110: 9b44 65bd bb1d 193d 55e3 18bd 296a 2abd
00000120: 7d65 6ebd dbc7 d5bc a871 a4bc 3718 86bd
00000130: 64d0 0e3d 9c0a a83b 0e4b f4bc 19b5 28bd
00000140: 2e90 99bc 6137 423d 17f4 04bd 7d8a babc
00000150: 5003 453a 40dd 093d 6707 663d d6d4 4c3d
00000160: b6a0 56bd 6104 923c 1125 2e3c 2d70 2f3b
00000170: 5856 14bc 6a3f 443b 03fc 0d3a e0e7 5bbc
00000180: 8f46 6f3d 36ad 463c 30cd 73bd 7543 2b3d
00000190: 19a2 4cbd ff68 78bd eba6 e0bc b137 6cbd
000001a0: 0884 88bc 2300 37bd 46b5 a5bc 6606 d7bc
000001b0: fcc3 ff3c 653e 0f3c 55dd 4e3d 8864 113c
000001c0: b01b 273d b3fb 0a3d c95b dbba 0725 c1bb
000001d0: b217 f73c b0b8 923c 7364 3abd 4be8 0bbd
000001e0: f26c a2bc 4be5 453d dbf1 2abc 4019 f9bc
000001f0: 60f3 4a3d 7b24 a63c ffe8 3e3b 6e13 2e3d
00000200: 37c8 d43c 15bd 2d3b 7078 063d 7643 40bd
00000210: 19dc a63c 9b36 1d3d 532c 303d 86b1 5cbc
00000220: 82e7 223c cf6a 13bd 0a1b 5a3d 0307 45bd
00000230: 5102 353c 84f1 093d 4529 1ebd 8a8c 1f3d
00000240: 4142 debc 7e6c 5f3d b93c e43a b523 0bbd
00000250: e690 fb3c 07c3 63bd bec0 b53c 5e4b d43c
00000260: c9fb 3b3c a561 1e3c 2ab7 813d 97ef 693c
00000270: ceb2 11bd b5ab deb9 5875 3cbd 5b51 37bd
00000280: a713 473d 3cfc 293d 4258 2a3a 7e9e edbb
00000290: 88ec 743d 7262 07bd 9ae7 0f3d e2bf 64bb
000002a0: 1018 633d 2b0b b13a ec99 6cbb 7b08 6abd
000002b0: 73ef d9bc 7b5b 273d d87f 083d e8a7 db3b
000002c0: b08e 4d3d c3b3 15ba e0e9 5f3c 90e5 433d
000002d0: 5f31 70bd e7a5 79bd e3e3 42bc 1c96 763c
000002e0: b8b9 52bd 8976 50bd 444d 44bd 6886 133d
000002f0: a898 083c be8e 08bd 6772 dcbc c92b 72bd
00000300: c101 69bd 72ed 433d 8b66 9cbc 4014 64bd
00000310: 756f 493d bded 653c 4619 323d c762 463d
00000320: f36b 7e3a f777 913a 2328 203d a015 a13c
00000330: c639 c33b 725d 08bd c389 073b c660 d9bc
00000340: d9ab 65bd 5be7 783c 234e d33c d835 193d
00000350: a2ab 3bbd 2198 8e3b 52d2 923c 6473 4cbd
00000360: 0b9b abbc b4e1 20bd 85c5 1e3d e8e8 033c
00000370: 1cf6 143d f62c 25bd 2c44 4f3c d34c 0f3d
00000380: eda1 05bc 7701 663d 09fe 583d a56a 16bd
00000390: 5eec 5b3d db18 313c f19e 81bd afc1 8d3c
000003a0: 3744 c83b c94e 5cbc f274 a4bc 4bf9 d23b
000003b0: b24a 1a3b fe49 143d ae53 3abd 76f7 3bbd
000003c0: 4157 723d 6e2a 8f3d e012 8d3d f3c7 f93c
000003d0: b8f3 4f3d 42fd 4a3c 966d e13c b617 3bbc
000003e0: 6fe9 263c b40c 113c 878c 04bb 73a5 04bd
000003f0: 951d 04bd 1545 bdbb be13 813d 73b0 a8bc

conv1.bias f4 [32]
0.024917 -0.014646286 -0.0065344837 -0.0017059465 -0.01058257 0.003822513 0.005165747 0.016347941
-2.407812e-06 -2.1603552e-11 -0.005947373 0.04278022 0.0010858506 -0.014114825 0.020927023 -0.000104078325
9.410469e-10 -0.019858206 0.01435039 0.0039192527 0.02672901 -0.0047634128 0.008769905 0.0019447234
-0.00884705 0.0021645892 0.011441803 0.0002166441 4.4990537e-07 -0.00484775 -0.0006497062 0.0027470542
00000000: bd1e cc3c faf6 6fbc 391f d6bb 119a dfba
00000010: 8462 2dbc 2083 7a3b 6d45 a93b 1eec 853c
00000020: e595 21b6 e006 bead 2ee2 c2bb 503a 2f3d
00000030: 1a53 8e3a de41 67bc 266f ab3c a044 dab8
00000040: 2556 8130 adad a2bc e61d 6b3c 136d 803b
00000050: ccf6 da3c 6716 9cbb a6af 0f3c 17e6 fe3a
00000060: 38f3 10bc c8db 0d3b 6676 3b3c f52a 6339
00000070: 868a f134 e0d9 9ebb 0c51 2aba ec07 343b

conv2.weight f4 [32, 32, 5, 5]
-0.0004577464 -0.0018110576 -0.0012570521 -0.0019285503 -0.0011235154 -0.0025953928 -0.0027095617 -0.002760242
-0.004184524 -0.004122619 -0.00062295445 -0.0014457538 -0.00085872493 -0.0019262965 -0.00107059 -0.0002482562
-0.0013021429 -0.0005279237 -0.0022742331 -0.0010573888 -0.002149805 -0.0017570592 -0.0019467599 -0.0018435677
-0.0017851316 -0.0023172868 0.0058304416 0.0061322204 0.011043185 -0.004529242 -0.010081829 -0.0030854796
0.0026811073 -0.00012962337 0.0035419695 0.004465341 -0.0015047456 -0.005501445 0.007546622 0.00690024
0.003140298 -0.0006369052 -0.002145584 0.0072492333 0.007617558 0.0057684476 -0.003480319 0.008707595
0.00057432643 -0.0021233745 -6.570376e-05 -0.00075312564 -0.00022175141 -0.0015190975 -0.0010966399 -0.0005717731
-0.0010807102 -0.001346265 -0.0017138687 -0.0017048707 0.00040812287 0.00049593515 -0.0008187354 -0.0010481618
-0.0016026673 -0.0019117346 -0.001984263 -0.0024239153 -0.0020312911 -0.0015088749 0.00028891626 -0.000607739
-0.00030433686 -0.0010424284 -0.00028918104 0.019561226 0.011677811 -0.038399525 0.02272565 -0.02489526
0.033254392 0.046180125 0.036464717 0.034062643 -0.020195352 0.02917749 0.0010626849 0.041331943
-0.010373146 -0.043717083 -0.008427253 0.021797651 -0.025794357 0.049951732 -0.0417808 -0.0071027754
-0.03920486 -0.03196009 0.01130287 0.042094048 -0.002098865 -0.0018026234 -0.0015678871 -0.0017287696
-0.0017779053 -0.0031425788 -0.0030703237 -0.002922849 -0.0030886051 -0.0029050158 -0.00393655 -0.0037924869
-0.0035723208 -0.0037698443 -0.003938388 -0.0033885424 -0.0031756782 -0.0030084793 -0.002714535 -0.0025571075
-0.002482251 -0.0023421948 -0.0022684764 -0.0023741499 -0.002115195 0.017112033 0.045652673 0.0057321666
0.030631369 0.022311838 0.0028795614 0.03637412 -0.017706117 0.013542998 0.02884846 0.0148858735
-0.00034127058 -0.017363168 0.008884035 0.039804984 -0.017679587 -0.014476581 0.046614166 -0.03722518
-0.036101595 0.0010490988 -0.004151871 0.029902523 0.04694622 -0.0131848855 -0.02539162 -0.023891026
-0.020748047 0.028951254 -0.0024186056 0.0015853981 0.023368591 -0.0019679237 -0.0050572865 -0.0063429326
-0.00013688878 0.021252295 -0.02724346 -0.005208343 0.024112655 -0.022076648 -0.0033474332 0.008782194
-0.006191593 -0.02315426 0.0069003245 -0.0037847601 -0.026447063 -0.02262742 0.009050122 -0.00016035223
-0.002747799 -0.0009480184 -0.001046379 -0.0012267791 0.0011660401 -0.001853504 -0.0023866815 -0.00090926874
-0.00050915603 -0.0007470357 -0.0006973415 -0.001412258 -0.00298823 -0.0035613948 0.00043377024 0.0010030625
0.0016411233 -0.0004944652 0.0011927806 0.0026689756 0.001036124 0.0022753861 -0.0016534418 0.00013238122
3.8650596e-05 7.327989e-08 8.9423054e-08 5.9417644e-08 9.236257e-06 5.4422994e-08 3.0930531e-09 1.1664763e-08
1.5200597e-07 -5.3845137e-09 2.0798543e-08 5.8561504e-06 -1.7257224e-05 1.1754947e-08 6.877752e-08 -7.4290045e-09
-1.532277e-05 -6.551241e-09 -1.1210445e-09 -1.3376856e-08 1.4649081e-08 9.547348e-09 -7.605399e-09 -1.1139229e-05
1.30858835e-08 7.792548e-10 7.880168e-09 1.1670319e-05 6.5854797e-09 6.426914e-06 5.054926e-10 9.614487e-09
1.2751998e-09 4.34851e-10 -5.2471183e-09 1.6313546e-09 4.6118214e-07 -4.267794e-05 3.1538474e-09 -6.457941e-10
1.0468608e-10 8.184861e-06 -1.9011161e-10 6.756249e-09 4.91739e-10 9.09389e-11 -2.8421276e-10 1.0807316e-08
8.041598e-09 -2.0893695e-10 8.593318e-06 1.0402714e-05 1.03854545e-05 1.05956815e-05 1.4658392e-05 -2.7627304e-06
00000000: affd efb9 0261 edba abc3 a4ba 69c7 fcba
00000010: ec42 93ba 7717 2abb e792 31bb 2de5 34bb
00000020: 551e 89bb 0917 87bb c44d 23ba 737f bdba
00000030: 0e1c 61ba c97b fcba 0a53 8cba 6228 82b9
00000040: aaac aaba 5c64 0aba 4d0b 15bb 1598 8aba
00000050: bee3 0cbb 204d e6ba 6c2a ffba dea3 f1ba
00000060: 14fb e9ba 9fdd 17bb 4a0d bf3b cbf0 c83b
00000070: 7aee 343c 096a 94bb 412e 25bc c235 4abb
00000080: 84b5 2f3b 82eb 07b9 6320 683b ff51 923b
00000090: e23a c5ba 7745 b4bb a749 f73b 691b e23b
000000a0: 75cd 4d3b fcf5 26ba ed9c 0cbb fa8a ed3b
000000b0: b59c f93b 3f05 bd3b 1016 64bb 4daa 0e3c
000000c0: 658e 163a 5028 0bbb 70ca 89b8 686d 45ba
000000d0: f185 68b9 741c c7ba 21bd 8fba 0be3 15ba
000000e0: 9ea6 8dba 2875 b0ba e4a3 e0ba f875 dfba
000000f0: 53f9 d539 a501 023a 67a0 56ba 7962 89ba
00000100: 9710 d2ba 2b93 faba 690a 02bb 8dda 1ebb
00000110: 691f 05bb 71c5 c5ba af79 9739 ad50 1fba
00000120: 678f 9fb9 18a2 88ba 399d 97b9 dd3e a03c
00000130: 4a54 3f3c d248 1dbd 242b ba3c 25f1 cbbc
00000140: c235 083d 5f27 3d3d 075c 153d 4585 0b3d
00000150: b970 a5bc a205 ef3c ca49 8b3a af4b 293d
00000160: 21f4 29bc af10 33bd 7612 0abc fd90 b23c
00000170: b04e d3bc 309a 4c3d 5822 2bbd 66be e8bb
00000180: 4695 20bd 95e8 02bd ac2f 393c cf6a 2c3d
00000190: 1d8d 09bb 0146 ecba 9081 cdba e297 e2ba
000001a0: 9a08 e9ba b9f3 4dbb 7c37 49bb 458d 3fbb
000001b0: 326a 4abb 1462 3ebb 2dfe 80bb 5f8b 78bb
000001c0: 991d 6abb 7e0f 77bb 980d 81bb 4f12 5ebb
000001d0: 0a1f 50bb e829 45bb 57e6 31bb 2595 27bb
000001e0: 43ad 22bb 827f 19bb b8aa 14bb a097 1bbb
000001f0: 159f 0abb 892e 8c3c 4cfe 3a3d e6d4 bb3b
00000200: a3ee fa3c 51c7 b63c 06b7 3c3b 07fd 143d
00000210: 6b0c 91bc 73e3 5d3c 9b53 ec3c e1e3 733c
00000220: 90ec b2b9 343d 8ebc 588e 113c 8d0a 233d
00000230: c8d4 90bc 2e2f 6dbc 7fee 3e3d 6e79 18bd
00000240: 44df 13bd ea81 893a 6b0c 88bb 23f6 f43c
00000250: ae4a 403d 6b05 58bc 1602 d0bc 1db7 c3bc
00000260: cff7 a9bc 2e2b ed3c 7881 1ebb 22cd cf3a
00000270: 7d6f bf3c 48f8 00bb 98b7 a5bb 60d8 cfbb
00000280: cd89 0fb9 4b19 ae3c ad2d dfbc bfaa aabb
00000290: e787 c53c 16da b4bc 9c60 5bbb 31e3 0f3c
000002a0: d9e2 cabb 01ae bdbc 1e1c e23b bd09 78bb
000002b0: 83a7 d8bc 245d b9bc f746 143c 3924 28b9
000002c0: 6b14 34bb 7084 78ba a726 89ba e0cb a0ba
000002d0: d0d5 983a 46f1 f2ba df69 1cbb fe5b 6eba
000002e0: e278 05ba b8d4 43ba cccd 36ba 841b b9ba
000002f0: 2ed6 43bb 4a66 69bb a86b e339 3179 833a
00000300: f61a d73a ff9e 01ba 1357 9c3a fbe9 2e3b
00000310: 8dce 873a a51e 153b 4db8 d8ba d0cf 0a39
00000320: c31c 2238 0c5e 9d33 d808 c033 6432 7f33
00000330: 6cf5 1a37 b7be 6933 918d 5431 2c66 4832
00000340: 1537 2334 af02 b9b1 7ba8 b232 f37f c436
00000350: 9bc3 90b7 cef2 4932 d7b2 9333 3742 ffb1
00000360: 6689 80b7 5319 e1b1 3f13 9ab0 09d0 65b2
00000370: 57ab 7b32 ae05 2432 e6a8 02b2 a0e2 3ab7
00000380: 53d0 6032 2f33 5630 5861 0732 a3cb 4337
00000390: 7e46 e231 c5a6 d736 e1f2 0a30 f62c 2532
000003a0: 1b43 af30 d60f ef2f 244a b4b1 3036 e030
000003b0: 6498 f734 1701 33b8 12bb 5831 b883 31b0
000003c0: 0635 e62e b651 0937 a907 51af 9824 e831
000003d0: 0e2b 0730 0dfa c72e 643f 9caf 14ab 3932
000003e0: 5227 0a32 86ba 65af 052c 1037 5187 2e37
000003f0: 303d 2e37 1bc4 3137 50ed 7537 5967 39b6

conv2.bias f4 [32]
0.0007930296 -0.0010617566 0.00062524475 -2.6460693e-08 -0.0017778425 0.0031650441 -0.0021744124 -0.012158018
0.009560402 0.005921973 0.004647518 0.012769737 -0.0021681814 0.008353436 0.0009062843 0.0017442558
0.001167133 0.00076801307 0.00091530086 1.7402399e-11 0.0024879854 0.0038876035 0.011336516 0.012562672
0.010219256 0.010493916 4.6905545e-11 0.0018513679 0.0004691134 0.00011097077 1.6020334e-08 0.0035177239
00000000: 51e3 4f3a a42a 8bba 77e7 233a ae4b e3b2
00000010: 7f06 e9ba a16c 4f3b 9680 0ebb 6c32 47bc
00000020: 3ba3 1c3c 1c0d c23b 354a 983b 2938 513c
00000030: 0c18 0ebb dadc 083c b693 6d3a 839f e43a
00000040: 7cfa 983a 7c54 493a cdf0 6f3a b812 992d
00000050: 780d 233b 2ac7 7e3b cbbc 393c aad3 4d3c
00000060: ab6e 273c adee 2b3c f34a 4e2e 99a9 f23a
00000070: 56f3 f539 fab8 e838 169d 8932 9d89 663b

conv3.weight f4 [32, 32, 5, 5]
0.02403136 0.03500431 0.0053296518 0.0028619815 -0.019774983 0.031043598 0.0066238027 0.00070019334
0.010486217 0.016511403 -0.023129657 0.0359532 0.039105225 -0.006784389 0.023464696 0.034174092
0.014026061 -0.017910786 -0.036969192 0.008985985 -0.00050169084 0.0027048779 -0.022898257 0.010170169
0.00040496726 0.03499251 -0.02425872 0.022676269 0.001492596 -0.0061587626 0.0052183694 0.0135718025
-0.021115791 -0.028016837 -0.005790447 0.00657866 0.0023973444 0.002021302 -0.002053078 -0.004631105
-0.0131669585 -0.00027002368 -0.0069239927 -0.0022182378 0.015471711 -0.003847155 0.035872392 -0.002153977
-0.025325013 -0.0041189766 0.005900825 0.019019196 0.017383214 0.033165023 -0.041275438 -0.01933452
0.014723358 -0.027756277 0.022670494 -0.0026665737 -0.034218617 0.012598622 -0.0053021815 -0.0029209736
0.0361442 -0.0005871234 -0.018812202 0.025976483 0.0042458656 -0.020972192 0.035742752 -0.039147634
-0.010260567 0.025302816 0.0047883843 8.609749e-08 -1.0210082e-07 -1.801394e-07 -1.8319116e-07 -1.377709e-07
-6.344906e-08 -1.2407433e-07 -1.8523087e-07 -1.1803616e-07 -3.2836186e-05 -1.01374525e-07 -9.231806e-08 7.175308e-08
-1.5239658e-07 -3.3684916e-08 -4.7324634e-06 4.8430345e-05 -9.971814e-08 -1.1150231e-07 -1.231205e-07 1.9147881e-05
4.870272e-05 5.387093e-06 4.6477376e-07 1.9768568e-06 0.0166073 0.0049202684 0.0023264026 0.032024596
-0.014629797 -0.023025567 -0.023460438 0.0049528317 0.030103004 -0.032233678 0.003871437 0.0058330027
0.030383702 -0.022228906 0.0027914564 -0.012735757 -0.0050938567 -0.024821876 -0.010939201 0.0076656723
-0.015536808 -0.037311174 0.026866196 -0.034788366 -0.025960788 0.03172678 0.0146729555 0.016799904
-0.011057275 0.0028189633 0.009606413 -0.0057627144 -0.025813391 0.021067206 0.013254304 0.002324841
0.03728545 -0.027114635 -0.041254144 -0.028119145 0.0024208853 -0.036162753 0.0019930494 -0.0042912606
-0.031654626 0.0220349 -0.029956507 -0.0056497743 0.021617776 -0.023061614 0.008688718 0.037548613
0.010503889 0.013755792 0.017146064 0.0057071312 -0.012182843 -0.03318616 -0.034270898 0.010146784
0.038171653 -0.031009383 -0.017535623 -0.028718105 -0.039779495 0.00088785705 0.037339322 -0.016995803
0.010934903 0.00638105 -0.021618469 0.0022426941 0.0012332957 0.00028535863 0.014987694 -0.027767481
-0.035334133 -0.03589743 -0.039651785 -0.028289065 -0.03655865 -0.0369042 -0.03746697 -0.037708815
-0.036819097 -0.029942585 -0.030041197 -0.029089252 -0.03353245 -0.02934769 -0.02611748 -0.034974325
-0.028866755 -0.021627096 -0.030358784 -0.026659826 -0.025927953 -0.021540195 -0.024935126 -0.022024786
-0.005624563 -0.0054119965 0.0055657374 0.0021683683 -0.006488957 0.0070892028 0.011833214 0.011598916
0.012476175 0.012025516 0.009292383 0.014668262 0.025790911 0.027393471 0.019881384 0.013756578
0.0036607604 0.0141138425 0.01854434 0.019532248 0.024977284 0.017858256 0.026650958 0.012516845
0.011856929 -0.0067561925 0.0029567212 -0.004119114 -0.0057167117 -0.0236395 -0.011518546 -0.019262733
0.0043581026 -0.0015839628 0.005298579 -0.01839317 0.017979195 -0.004645219 0.0013604198 -0.013482353
0.011682152 0.0013174732 -0.030935355 -0.011650228 0.010875516 -0.0008320086 0.0030728616 0.0008674299
0.0062773526 -0.0041678823 0.014991774 0.022762964 0.012818414 -0.009707229 -0.0028362388 -0.007373185
00000000: 6add c43c ae60 0f3d 5ca4 ae3b 1590 3b3b
00000010: 25ff a1bc 254f fe3c 7c0c d93b 2e8d 373a
00000020: 62ce 2b3c ec42 873c 687a bdbc aa43 133d
00000030: cd2c 203d 944f debb 0939 c03c 22fa 0b3d
00000040: 90cd 653c a4b9 92bc 026d 17bd f439 133c
00000050: e783 03ba 5244 313b 2095 bbbc c8a0 263c
00000060: c951 d439 4e54 0f3d 39ba c6bc 95c3 b93c
00000070: 36a3 c33a 72cf c9bb dbfe aa3b 445c 5e3c
00000080: 06fb acbc 9183 e5bc cabd bdbb cd91 d73b
00000090: c41c 1d3b d277 043b ef8c 06bb 86c0 97bb
000000a0: 3aba 57bc f791 8db9 a9e2 e2bb db5f 11bb
000000b0: 0f7d 7d3c 8d20 7cbb eeee 123d bd29 0dbb
000000c0: 6776 cfbc 7bf8 86bb b55b c13b 25ce 9b3c
000000d0: 3e67 8e3c 0cd8 073d 6f10 29bd 6d63 9ebc
000000e0: 3d3a 713c 2261 e3bc 79b7 b93c afc1 2ebb
000000f0: d228 0cbd 736a 4e3c ecbd adbb ce6d 3fbb
00000100: f10b 143d 2fe9 19ba 0c1c 9abc a2cc d43c
00000110: e720 8b3b e0cd abbc fe66 123d 4559 20bd
00000120: f01b 28bc da47 cf3c e1e7 9c3b 98e4 b833
00000130: 8542 dbb3 576c 41b4 34b3 44b4 2dee 13b4
00000140: 7d41 88b3 4b39 05b4 e0e3 46b4 117b fdb3
00000150: 96b9 09b8 3cb3 d9b3 6440 c6b3 ac16 9a33
00000160: 74a2 23b4 f5ac 10b3 8dcb 9eb6 b021 4b38
00000170: a124 d6b3 0b73 efb3 1b33 04b4 c39f a037
00000180: 2646 4c38 c7c2 b436 0586 f934 24aa 0436
00000190: 080c 883c 343a a13b 8f76 183b 392c 033d
000001a0: d1b1 6fbc 1da0 bcbc 1b30 c0bc 5d4b a23b
000001b0: 939a f63c 7607 04bd efb7 7d3b c622 bf3b
000001c0: 3ee7 f83c 6519 b6bc def0 363b a3a9 50bc
000001d0: 5eea a6bb 3f57 cbbc 563a 33bc 5230 fb3b
000001e0: 198e 7ebc 9ad3 18bd 7f16 dc3c 3f7e 0ebd
000001f0: b8ab d4bc f1f3 013d d666 703c f49f 893c
00000200: 9329 35bc 5bbe 383b 3764 1d3c 27d5 bcbb
00000210: 9b76 d3bc 2295 ac3c 9528 593c 5c5c 183b
00000220: a1b8 183d 831f debc 1bfa 28bd 1f5a e6bc
00000230: b7a7 1e3b 651f 14bd d29d 023b b49d 8cbb
00000240: 48a8 01bd 8982 b43c 5967 f5bc be21 b9bb
00000250: c317 b13c b6eb bcbc 205b 0e3c 93cc 193d
00000260: 8118 2c3c f95f 613c e775 8c3c e302 bb3b
00000270: 8c9a 47bc 36ee 07bd a45f 0cbd b23e 263c
00000280: e159 1c3d 6407 febc dea6 8fbc 3b42 ebbc
00000290: d3ef 22bd 14bf 683a 1ef1 183d c83a 8bbc
000002a0: 4f28 333c 2118 d13b 3719 b1bc 2afa 123b
000002b0: 89a6 a13a 309c 9539 f28e 753c a178 e3bc
000002c0: 86ba 10bd 2f09 13bd e969 22bd 78be e7bc
000002d0: 86be 15bd dc28 17bd f776 19bd 8f74 1abd
000002e0: 9fcf 16bd 274a f5bc f518 f6bc 954c eebc
000002f0: 5359 09bd 916a f0bc 53f4 d5bc 3d41 0fbd
00000300: f979 ecbc 4f2b b1bc fcb2 f8bc b565 dabc
00000310: dc66 d4bc 1075 b0bc c044 ccbc 536d b4bc
00000320: 414e b8bb 1e57 b1bb ca60 b63b 2f1b 0e3b
00000330: 51a1 d4bb 8b4c e83b 19e0 413c 6109 3e3c
00000340: df68 4c3c ab06 453c 143f 183c 2653 703c
00000350: 7647 d33c 4668 e03c 49de a23c 4563 613c
00000360: 5ee9 6f3b bf3d 673c 4dea 973c 1802 a03c
00000370: 299d cc3c 7a4b 923c 1c53 da3c 7413 4d3c
00000380: 9143 423c 0d63 ddbb 8dc5 413b a2f9 86bb
00000390: 4153 bbbb a0a7 c1bc 49b8 3cbc e1cc 9dbc
000003a0: 6ace 8e3b f99c cfba b49f ad3b 46ad 96bc
000003b0: 1b49 933c ec36 98bb 1d50 b23a 16e5 5cbc
000003c0: 7f66 3f3c 11af ac3a 246c fdbc 99e0 3ebc
000003d0: 382f 323c 271b 5aba 1062 493b 3c64 633a
000003e0: 40b2 cd3b bb92 88bb 0fa0 753c 6579 ba3c
000003f0: 5304 523c 120b 1fbc 31e0 39bb c29a f1bb

conv3.bias f4 [32]
0.0035289787 0.003063367 -0.001455025 -0.00024137582 0.0061253915 0.0057653035 0.0016706195 0.0009815999
0.0016282685 0.003899888 -0.002668364 0.0028797875 0.004411847 0.0014885422 -0.00023256923 0.0029502718
2.412086e-06 -0.0037363297 -0.0008694631 -0.0009732494 -0.000100658435 0.0046719066 -1.1929672e-08 -0.0012757205
-3.547194e-08 0.00033565998 0.003536312 -0.0003896452 0.0018637961 -0.00084276707 -0.00082734146 8.370421e-13
00000000: 7046 673b c5c2 483b 8ab6 beba d419 7db9
00000010: 82b7 c83b dfea bc3b b0f8 da3a 07a9 803a
00000020: a06b d53a 4395 7f3b b8df 2ebb d1ba 3c3b
00000030: 4191 903b 301b c33a d4dd 73b9 5959 413b
00000040: 52df 2136 36dd 74bb aeec 63ba a921 7fba
00000050: 9618 d3b8 cb16 993b 41f3 4cb2 1436 a7ba
00000060: cf59 18b3 85fb af39 78c1 673b 4b49 ccb9
00000070: 9f4a f43a 24ed 5cba f2e1 58ba 3d9b 6b2b

conv4.weight f4 [32, 32, 5, 5]
1.5411876e-08 -2.5499259e-07 -7.4208475e-07 -5.9350523e-08 -1.2606342e-06 -2.3004742e-07 -1.6632258e-07 -4.8845845e-07
-2.4648463e-05 -6.756086e-08 4.1108986e-08 -7.699612e-06 -4.5154317e-07 -5.7772814e-07 -6.8824455e-08 -4.2536558e-07
-4.9551124e-07 -6.666253e-07 -6.245343e-07 9.622753e-08 -8.763246e-08 -6.1797886e-07 -2.5678975e-07 -4.6459186e-07
-1.706261e-07 -7.02724e-08 1.5478474e-07 -9.618811e-08 -1.739217e-07 1.8766831e-06 -4.2216647e-07 1.3291034e-06
-7.0194126e-08 -6.9883316e-07 -5.976725e-07 3.4740882e-05 1.9843934e-05 -3.3474814e-07 2.4964802e-05 2.1492774e-06
-2.6120298e-07 -6.3904636e-08 -2.7912376e-06 -4.7633802e-07 -2.0148563e-07 -1.1692917e-08 -1.9114714e-07 -6.5829624e-08
-1.16263635e-07 -1.5510803e-07 -4.2745432e-06 -6.2955905e-08 -3.0450917e-07 3.954211e-06 -4.3838187e-07 -3.067375e-05
6.555146e-06 -7.42858e-08 -5.8368374e-07 -3.3623738e-07 1.5470962e-07 -3.2483845e-07 1.633816e-05 -5.312507e-07
-5.9269945e-07 -8.146957e-08 -6.285514e-07 -2.657849e-07 -7.7730306e-07 -1.2752217e-05 1.8834125e-08 -5.7392942e-08
-1.16651066e-07 7.69348e-06 -6.4510056e-07 7.0661436e-08 -1.7687402e-07 -5.9083074e-08 -1.5195246e-08 -2.2979195e-06
1.27232715e-05 -1.6213686e-05 -1.6546124e-07 2.1137755e-08 4.649294e-05 7.1038952e-09 -6.1942664e-08 -4.788868e-08
-3.8831476e-07 1.0974663e-08 1.0205478e-07 -1.6410554e-07 3.7131603e-08 -5.997474e-07 -4.9290204e-05 -1.6158899e-07
-6.946345e-08 -1.7160778e-07 -1.3168291e-06 -1.5963921e-07 -3.936695e-08 -7.7015514e-08 -1.9863448e-08 -2.26906e-06
-4.5170108e-07 1.9614909e-07 -5.610961e-08 -6.4655374e-08 -1.9933856e-07 -1.18292526e-07 -3.767959e-05 2.9439066e-06
-8.931974e-06 -1.0317855e-05 -2.1066012e-07 -2.4847358e-07 -9.1851206e-08 5.596997e-08 -4.383781e-07 -2.1149832e-07
-1.1640005e-08 -1.3490488e-07 -2.3196377e-07 2.5992147e-05 -2.5122597e-07 -3.6095895e-07 -1.0754564e-05 -8.276685e-08
1.5232307e-06 -6.102863e-07 -2.7570144e-07 -3.7928558e-07 -4.371657e-07 -1.2209584e-07 -7.395786e-07 -3.8835668e-05
2.1877015e-05 -5.0682615e-07 3.493745e-06 -8.13678e-06 -6.063734e-07 -2.9736895e-05 -4.0694746e-07 -2.2930512e-06
-6.1757326e-08 -1.3555139e-07 -3.477102e-07 -2.8604407e-07 -1.2408836e-06 1.5527641e-05 -3.022824e-07 -3.6817517e-07
-2.7312103e-07 -2.137625e-07 -1.3018956e-07 -6.8426795e-07 -1.4696332e-07 -1.9297051e-05 -2.5294213e-07 -6.661116e-08
2.1751253e-05 -1.0542174e-07 -6.733978e-07 9.5296974e-07 -6.88424e-07 -2.6111285e-05 -6.769199e-08 -1.1340253e-07
-1.0838064e-06 -3.7379533e-07 -1.4510095e-08 -7.1734675e-08 -9.538937e-08 -1.1474224e-07 -1.5159777e-07 -1.9762126e-07
-1.0488401e-06 -4.0565587e-07 -4.7079348e-07 -6.2902143e-07 5.9614666e-07 -1.6135708e-07 -2.0151761e-07 8.923422e-07
-1.03703506e-07 -1.4008333e-07 -2.60648e-07 2.2134473e-05 -2.9072626e-07 -3.5269272e-06 -8.212333e-08 -1.15221354e-07
-5.551156e-06 -4.1132392e-07 -6.6697226e-07 -5.7780877e-08 -3.44101e-08 -2.0040005e-07 -2.31103e-07 4.706742e-06
-3.9560032e-07 -6.983544e-07 -4.6237386e-07 3.4500176e-06 -1.2348903e-06 -9.76222e-07 -1.8188526e-06 4.8452104e-05
-7.1236536e-07 -5.3413037e-06 -1.0809699e-06 -4.1861824e-07 3.8660535e-05 -8.249206e-07 2.7682288e-05 -1.1199041e-06
-5.326689e-07 -8.2543465e-07 -9.239841e-07 4.916532e-05 -1.912338e-07 -4.6892018e-07 -1.5589792e-07 -1.4230079e-06
-2.0343093e-06 4.0939483e-07 -2.2561505e-06 -1.7428101e-07 -2.8008827e-07 1.4487619e-05 -1.723898e-07 1.872599e-05
-7.837729e-08 -5.738091e-07 -1.2177351e-07 -5.65354e-07 -4.1477523e-07 -9.68073e-07 -7.6634666e-07 -4.1901546e-07
-1.4254452e-07 -6.002699e-07 9.552349e-06 -4.885641e-07 -1.7924711e-07 -1.7597927e-07 -3.1700853e-08 -3.357215e-06
-1.6717948e-07 -1.7586825e-07 -7.240163e-08 7.527766e-09 -2.5724256e-07 -1.7379881e-07 -7.3536205e-07 6.713214e-06
00000000: 1363 8432 eae5 88b4 ad33 47b5 97e8 7eb3
00000010: 1033 a9b5 f402 77b4 6796 32b4 9c1e 03b5
00000020: 2cc4 ceb7 fa15 91b3 cf8f 3033 952d 01b7
00000030: 9f6b f2b4 2d15 1bb5 a5cc 93b3 cd5d e4b4
00000040: 4603 05b5 24f2 32b5 aca5 27b5 a5a5 ce33
00000050: 7430 bcb3 2fe3 25b5 eadc 89b4 056d f9b4
00000060: 5835 37b4 a9e8 96b3 e832 2634 f98f ceb3
00000070: 3cbf 3ab4 57e2 fb35 1ea6 e2b4 a563 b235
00000080: a1bd 96b3 7397 3bb5 be6f 20b5 bdb6 1138
00000090: 8676 a637 6fb7 b3b4 816b d137 4e3c 1036
000000a0: 773b 8cb4 f23b 89b3 1951 3bb6 66bb ffb4
000000b0: f357 58b4 fee1 48b2 203e 4db4 385e 8db3
000000c0: 9cac f9b3 c58b 26b4 0c6e 8fb6 6032 87b3
000000d0: 6c7b a3b4 6aae 8436 bf5a ebb4 b0a7 00b8
000000e0: 46f4 db36 0d87 9fb3 71ae 1cb5 1d84 b4b4
000000f0: 421e 2634 7565 aeb4 ee0d 8937 459b 0eb5
00000100: ff19 1fb5 5ff4 aeb3 b9b9 28b5 33b1 8eb4
00000110: dca7 50b5 5bf2 55b7 aec8 a132 3580 76b3
00000120: 9a81 fab3 3f13 0137 f92a 2db5 89be 9733
00000130: c3ea 3db4 87c2 7db3 b386 82b2 f535 1ab6
00000140: 0976 5537 a002 88b7 a4a9 31b4 6a92 b532
00000150: 6a01 4338 8616 f431 5705 85b3 29ae 4db3
00000160: 9379 d0b4 148b 3c32 3529 db33 fd34 30b4
00000170: a17a 1f33 54fe 20b5 f4bc 4eb8 3e81 2db4
00000180: ef2b 95b3 3043 38b4 e7bd b0b5 4b69 2bb4
00000190: 6b14 29b3 ba63 a5b3 2fa0 aab2 2746 18b6
000001a0: 5381 f2b4 0d9d 5234 2bfd 70b3 abd8 8ab3
000001b0: c409 56b4 0108 feb3 270a 1eb8 ee8f 4536
000001c0: 89da 15b7 da1a 2db7 d031 62b4 f365 85b4
000001d0: bc3f c5b3 a263 7033 3a5a ebb4 3718 63b4
000001e0: 49f9 47b2 5fda 10b4 b711 79b4 b609 da37
000001f0: 3ce0 86b4 d2c9 c1b4 806e 34b7 8fbd b1b3
00000200: cf71 cc35 8ed2 23b5 1e04 94b4 9da0 cbb4
00000210: 99b3 eab4 7319 03b4 7487 46b5 7be3 22b8
00000220: 8884 b737 d40c 08b5 1576 6a36 3483 08b7
00000230: aac5 22b5 7f73 f9b7 6f7a dab4 52e2 19b6
00000240: 739f 84b3 158c 11b4 edac bab4 9991 99b4
00000250: 708c a6b5 5b41 8237 6049 a2b4 9ca9 c5b4
00000260: 78a1 92b4 9786 65b4 3cca 0bb4 89ae 37b5
00000270: f8cc 1db4 1ae0 a1b7 1acc 87b4 df0b 8fb3
00000280: 7676 b637 3764 e2b3 8bc3 34b5 95cf 7f35
00000290: 23cc 38b5 8f09 dbb7 115e 91b3 b387 f3b3
000002a0: 4e77 91b5 0aae c8b4 1348 79b2 8e0c 9ab3
000002b0: dcd8 ccb3 3768 f6b3 e1c6 22b4 b831 54b4
000002c0: dfc5 8cb5 ebc8 d9b4 5dc1 fcb4 06da 28b5
000002d0: e306 2035 7f41 2db4 bd60 58b4 4a89 6f35
000002e0: 9bb3 deb3 d069 16b4 30ef 8bb4 6bad b937
000002f0: 1d15 9cb4 26b0 6cb6 c75b b0b3 9c6f f7b3
00000300: 1144 bab6 eed3 dcb4 fc09 33b5 bf2a 78b3
00000310: 4eca 13b3 8c2d 57b4 1c25 78b4 9bee 9d36
00000320: e562 d4b4 8d76 3bb5 2e3c f8b4 da86 6736
00000330: 82be a5b5 bc06 83b5 4d1f f4b5 0d39 4b38
00000340: 6039 3fb5 7339 b3b6 d815 91b5 74be e0b4
00000350: 6f27 2238 1d70 5db5 4337 e837 9d4f 96b5
00000360: bafc 0eb5 7093 5db5 b407 78b5 dc36 4e38
00000370: f255 4db4 e6bf fbb4 e564 27b4 2efe beb5
00000380: 2b85 08b6 ccca db34 5f68 17b6 0022 3bb4
00000390: 0a5f 96b4 da0f 7337 261a 39b4 c215 9d37
000003a0: 5f50 a8b3 dc07 1ab5 d9c0 02b4 d5c2 17b5
000003b0: 46ae deb4 bcee 81b5 f1b6 4db5 0cf5 e0b4
000003c0: 570e 19b4 3c22 21b5 0743 2037 df25 03b5
000003d0: 1277 40b4 d0f4 3cb4 7527 08b3 844c 61b6
000003e0: f281 33b4 4cd6 3cb4 387b 9bb3 7753 0132
000003f0: 261b 8ab4 749d 3ab4 b265 45b5 1242 e136

conv4.bias f4 [32]
-4.6677076e-08 0.0022260502 0.0018772944 0.0003666007 -0.00083172804 0.0034005523 -0.00016771194 0.0042767697
0.0006735243 0.0017790662 0.00039244062 -0.001084156 -0.0012054916 0.0011848473 0.00010859714 0.005027684
0.00030977122 0.0006743275 0.001322512 0.0014577615 0.0014668937 0.0009417029 0.0031294648 4.5488713e-07
0.00093776715 0.0027032353 -0.00025449233 0.0017728088 -0.00064364594 -0.0026623767 -0.0022353667 0.0009491845
00000000: fd79 48b3 ede2 113b 8c0f f63a 5034 c039
00000010: 5308 5aba cddb 5e3b d5db 2fb9 2524 8c3b
00000020: 738f 303a 8e2f e93a 7dc0 cd39 3d1a 8eba
00000030: 9601 9eba e14c 9b3a a5be e338 45bf a43b
00000040: ca68 a239 5ac5 303a 2458 ad3a 5c12 bf3a
00000050: c944 c03a 9ddc 763a b517 4d3b 3637 f434
00000060: 7dd4 753a c328 313b 626d 85b9 985d e83a
00000070: 59ba 28ba 457b 2ebb 3b7f 12bb b2d2 783a

conv5.weight f4 [32, 32, 5, 5]
1.16084806e-07 5.971865e-08 -1.1978566e-08 -8.8432515e-08 2.6550818e-08 6.161998e-08 -8.5919396e-07 2.6239388e-08
5.2869634e-08 -5.8196243e-09 1.0463276e-07 -4.313695e-07 3.7260204e-08 -5.103761e-09 4.780989e-09 4.9168474e-08
5.8675087e-09 4.603776e-05 2.5747176e-09 -2.2263546e-06 1.0432122e-07 -3.210027e-05 8.541042e-08 1.5336905e-08
1.1340291e-07 -0.00030353575 0.0074744076 0.009910572 -0.013038323 0.006659702 -0.012266654 0.0042118975
-0.014118408 -0.010886928 -0.0032399856 -0.02760595 -0.029483452 -0.007421117 0.004941258 0.027347047
-0.013419293 -0.014762844 0.008669969 0.018641781 0.012941152 0.0007312618 0.008282513 0.02091607
0.022794351 0.019575313 0.003524756 0.0065334933 0.008324729 0.015448105 -0.015930811 0.028621424
0.006718144 -0.0012382029 -0.004088053 0.016345471 0.010755736 0.0035099508 0.011423509 -0.016605241
0.003627623 0.0033262186 0.0062941182 -0.0048097 -0.015823677 -0.030873315 -0.003407028 -0.03516799
-0.03593474 0.010062817 -0.007948154 -0.0009179472 -0.0015553596 -0.001264862 -0.0010428501 -0.00047353905
8.326351e-05 3.2562293e-05 -0.00017480057 -0.0004319691 -0.0005447252 0.00094413117 0.001013334 0.0015182489
0.0018078791 0.001996897 0.00028158753 0.00030728703 0.00026708652 0.0001614876 -0.00022118582 4.1767238e-05
0.00047476578 0.00074025703 0.0005633649 0.00019833179 -0.004301273 -0.009101039 -0.012813892 -0.0021713725
-0.00830609 -0.006703529 -0.0063890186 -0.0027265209 0.0033284558 -0.0034767385 -0.00555322 -0.0013330053
0.0013360799 0.006822279 -0.009761204 0.0030983498 -0.009772201 -0.017133312 -0.001973639 -0.005653296
0.020017574 0.0056135287 -0.015577874 -0.0048406487 -0.01644036 0.007228891 0.025479192 0.00056929246
0.015624206 -0.008323698 0.014397031 0.009108812 0.0008237567 -0.008112827 0.010360686 0.017416706
0.02508092 0.017115036 0.0069465223 -0.010574044 -0.008184431 -0.004435848 -0.0030473259 0.01972885
0.014578758 -0.00048402205 0.00068784016 -0.013668375 0.016888402 0.032017853 -0.01899525 -0.022179104
-0.00581944 0.0042602504 -0.015825838 -0.028395893 0.033259146 -0.017463202 0.022392344 -0.02746531
-0.007230097 -0.016431345 -0.04034383 -0.0030752565 -0.018625597 -0.03531757 -0.023212614 -0.0026914335
0.017782783 -0.009486323 0.02460591 0.005971674 0.019544909 0.0048577725 0.008323125 -0.00051070517
0.007027749 -0.0192142 -0.0047191735 0.01581469 -0.01085639 0.0005698661 -0.0070301723 -0.010538014
-0.013605607 -0.0016505657 -0.009717768 -0.01720537 -0.014103313 0.029719306 0.00035692359 0.015632857
0.012779851 0.026855515 0.022686103 -0.012147134 0.018191407 0.038838696 0.025004199 0.015645146
-0.00079330907 -0.0024449648 -0.0020755876 -0.001613262 -0.0006863276 0.0005680833 9.923952e-05 -1.660174e-05
-0.0016856167 -0.0022709393 0.0025013443 0.0032355653 0.0042040027 0.0050082947 0.00532233 0.0016314681
0.0018013985 0.0011337423 0.0005996392 0.0002946783 0.00050404796 0.0014894665 0.0023328182 0.0023109997
0.0010976474 -0.0034509322 0.011811526 0.00040318674 0.013520632 0.015482435 -0.0075037805 -0.011129934
-0.016693676 -0.005538084 -0.024042916 0.0072820312 -0.000178531 0.017227966 0.013171515 -0.018981546
-0.009644601 0.0042898534 0.013324777 -0.009931065 0.0028318714 -0.020342309 -0.007835052 0.009726883
0.0032762906 -0.018347092 0.009176931 0.00682794 0.008730656 -0.0014576244 0.0030677498 0.0019714565
00000000: 4c4a f933 ad3e 8033 4aca 4db2 4ae8 bdb3
00000010: de11 e432 f153 8433 5ca3 66b5 0665 e132
00000020: c712 6333 f5f5 c7b1 78b2 e033 f996 e7b4
00000030: 0708 2033 285d afb1 0646 a431 4f2d 5333
00000040: 279b c931 ab18 4138 e9ee 3031 7b68 15b6
00000050: 3207 e033 67a3 06b8 e06a b733 36be 8332
00000060: e987 f333 e123 9fb9 e0eb f43b f45f 223c
00000070: b19e 55bc a139 da3b 13fa 48bc f503 8a3b
00000080: e550 67bc 165f 32bc f055 54bb e025 e2bc
00000090: 4887 f1bc d72c f3bb 47ea a13b ea06 e03c
000000a0: 98dc 5bbc dbdf 71bc 7c0c 0e3c a6b6 983c
000000b0: 2007 543c 26b2 3f3a 61b3 073c 2e58 ab3c
000000c0: 38bb ba3c 685c a03c 98ff 663b ea16 d63b
000000d0: 7264 083c 0c1a 7d3c 5581 82bc 7a77 ea3c
000000e0: e023 dc3b 324b a2ba 13f5 85bb f0e6 853c
000000f0: d438 303c 3407 663b ab29 3b3c b707 88bc
00000100: 6abd 6d3b b0fc 593b e43e ce3b b09a 9dbb
00000110: a8a0 81bc 09ea fcbc 7248 5fbb 4f0c 10bd
00000120: 4e30 13bd 83de 243c f938 02bc 65a2 70ba
00000130: 35dd cbba bac9 a5ba 3eb0 88ba 5645 f8b9
00000140: c29d ae38 7f93 0838 ac4a 37b9 e979 e2b9
00000150: e4cb 0eba 927f 773a d9d1 843a fbff c63a
00000160: 5bf6 ec3a 5fde 023b 0aa2 9339 5e1b a139
00000170: bf07 8c39 ff54 2939 1eee 67b9 3b2f 2f38
00000180: fce9 f839 cf0d 423a c7ae 133a 49f7 4f39
00000190: b1f1 8cbb 861c 15bc 5cf1 51bc 964d 0ebb
000001a0: 4416 08bc 47a9 dbbb f95a d1bb 6eaf 32bb
000001b0: 3922 5a3b fed9 63bb c9f7 b5bb 3cb8 aeba
000001c0: 671f af3a 6d8d df3b 75ed 1fbc af0d 4b3b
000001d0: 951b 20bc 295b 8cbc 2b58 01bb 493f b9bb
000001e0: e5fb a33c b1f1 b73b 573a 7fbc 4e9e 9ebb
000001f0: efad 86bc 55e0 ec3b bdb9 d03c 923c 153a
00000200: abfc 7f3c 1f60 08bc 86e1 6b3c 203d 153c
00000210: 60f1 573a aaeb 04bc debf 293c 7bad 8e3c
00000220: 8076 cd3c d534 8c3c a79f e33b c13e 2dbc
00000230: fe17 06bc 975a 91bb a5b5 47bb 669e a13c
00000240: bedb 6e3c 57c4 fdb9 2c50 343a 52f1 5fbc
00000250: 8c59 8a3c 2725 033d ed9b 9bbc f4b0 b5bc
00000260: 00b1 bebb 9299 8b3b 30a5 81bc 819e e8bc
00000270: be3a 083d fd0e 8fbc 2670 b73c eefe e0bc
00000280: 73ea ecbb 079b 86bc 923f 25bd 3e8a 49bb
00000290: b594 98bc 28a9 10bd 6128 bebc c362 30bb
000002a0: 33ad 913c 866c 1bbc 5592 c93c 08ae c33b
000002b0: a51c a03c f32d 9f3b b75d 083c d8e0 05ba
000002c0: 0849 e63b 1967 9dbc 4ca3 9abb cf8d 813c
000002d0: 00df 31bc 1163 153a 5c5d e6bb a2a7 2cbc
000002e0: 0dea 5ebc cb57 d8ba 4637 1fbc 47f2 8cbc
000002f0: 9511 67bc e775 f33c 7921 bb39 7a10 803c
00000300: 9562 513c 1900 dc3c 35d8 b93c c604 47bc
00000310: 2506 953c 5315 1f3d 9bd5 cc3c 402a 803c
00000320: 12f6 4fba b43b 20bb 9506 08bb 1774 d3ba
00000330: aaea 33ba 6deb 143a d01e d038 f743 8bb7
00000340: e9ef dcba 0ad4 14bb 98ed 233b c70b 543b
00000350: bbc1 893b 9f1c a43b f166 ae3b fcd6 d53a
00000360: e71c ec3a 149a 943a 1b31 1d3a 0d7f 9a39
00000370: 1622 043a 343a c33a 32e2 183b 2474 173b
00000380: efde 8f3a 0929 62bb 2185 413c cf62 d339
00000390: a485 5d3c 0aaa 7d3c 46e2 f5bb 545a 36bc
000003a0: 2dc1 88bc d178 b5bb a6f5 c4bc 1b9e ee3b
000003b0: 0d34 3bb9 aa21 8d3c 57cd 573c 307f 9bbc
000003c0: 6304 1ebc e691 8c3b 2a50 5a3c e8b5 22bc
000003d0: eb96 393b eaa4 a6bc 975e 00bc 815d 1f3c
000003e0: 09b7 563b a44c 96bc d75a 163c e9bc df3b
000003f0: 060b 0f3c c20d bfba 4d0c 493b 8d33 013b

conv5.bias f4 [32]
0.004219154 -0.0027905046 0.0022905266 -0.0011566525 -0.0004736683 0.006077574 0.0010461543 0.0011301893
-0.000885837 0.009024151 -6.767288e-05 -0.00034113813 0.0041332585 0.005683578 0.0014657225 -0.002640279
-9.972005e-11 0.00021180316 1.6735608e-05 0.0026810516 0.0011513943 0.0014181181 0.002300228 0.0008585244
0.002062927 0.0040216083 0.0021120596 0.0018379091 0.001299467 0.0034316876 0.0004019013 0.0052160914
00000000: d440 8a3b e6e0 36bb a91c 163b d19a 97ba
00000010: af56 f8b9 6326 c73b 1d1f 893a dc22 943a
00000020: 8437 68ba 08da 133c 9aeb 8db8 c9da b2b9
00000030: 4970 873b 4f3d ba3b 7c1d c03a 8808 2dbb
00000040: 6649 dbae 7a17 5e39 7263 8c37 95b4 2f3b
00000050: 62ea 963a 26e0 b93a 6cbf 163b 990e 613a
00000060: 2c32 073b b2c7 833b 7b6a 0a3b ffe5 f03a
00000070: e152 aa3a 2ae6 603b 48b6 d239 bfeb aa3b

convt1.weight f4 [32, 8, 4, 4]
0.022264577 0.03773782 0.028385429 0.021575075 0.023589164 0.023316333 0.014935053 0.004608811
0.04725277 -0.03008726 0.0048096175 -0.0051871636 0.005425476 -0.010083528 -0.024046903 -0.015353288
0.04194595 -0.0014645925 0.029113265 0.0064464007 0.024118178 -0.022448454 0.027362349 0.002213093
-0.011024342 0.04095759 -0.028502474 -0.0026222293 0.019447733 -0.0051720464 0.02675482 -0.007467563
0.0067444183 0.0055425074 -0.004986004 -0.0069928365 0.011613635 0.012288275 0.005695737 0.0039501013
-0.0077393786 -0.00045736524 -0.007694223 -0.006349355 8.357375e-05 -0.0025374899 0.0024570099 -0.007006691
0.013463964 0.0063046003 0.024484077 0.026713615 0.04355114 0.053315606 -0.012155151 0.019099189
-0.00019555002 0.01347961 0.011426557 0.0121715795 0.039157625 -0.0029102704 -0.008042516 0.0010944691
-0.06202407 -0.04877505 -0.01621685 -0.02076358 -0.068256296 -0.032496717 0.013973643 -0.022754572
0.012390016 0.0051939622 0.0032184974 0.026830235 0.025291951 0.010699821 0.058583193 -0.051010497
0.06944802 0.023356657 0.0022250812 -0.021073822 0.056134075 0.04121472 0.026570493 -0.027282601
0.028817043 -0.0058019003 -0.012218429 0.02514555 -0.064912066 -0.052466445 -0.0064921025 -0.035951514
-0.05243073 -0.052647598 -0.045795947 0.0119765755 -0.054709695 -0.016820088 -0.022328213 0.013276208
-0.04808488 -0.03559171 -0.005291551 -0.01650754 0.048866067 -0.007715744 0.05011374 0.02689434
0.021511381 -0.007649708 -0.0042927014 -0.0011444618 0.028985716 0.003039425 -0.009432025 -0.007366458
0.019939715 0.01978832 0.011009542 0.02644588 0.02283301 0.0009889603 0.0012445905 0.0002760041
-0.00022273742 -0.006676944 -0.014007464 -0.0020494836 -0.011205873 -0.019885795 -0.030295251 -0.023284268
-0.005069173 0.0126548745 -0.014368908 -0.007968311 -0.00089377764 -0.0034055116 -0.003220593 0.016156416
-0.009889951 -0.0117380535 -0.023177294 -0.015592968 0.0011730321 -0.0074945646 -0.018019488 -0.012157123
0.008084954 -0.008453266 -0.0084258085 0.0007216594 0.004925411 -0.007825213 0.0011054378 0.0019545883
-0.00093435077 -0.006402557 -0.010017932 -0.0067238556 0.0038405063 0.00095806876 -0.0024315699 -0.004127246
-0.0023700658 -0.0030362126 -0.0023744963 -0.0016839632 0.0050079925 -0.0005351464 -0.00038077834 -0.0022657844
-0.010382377 -0.016357545 -0.023441883 -0.026381074 0.0004516622 -0.011771634 -0.01831082 -0.023614725
-0.00552283 -0.006583765 -0.00914547 -0.0069145705 0.021789003 -0.023073135 -0.010335015 -0.0075250026
0.0029274307 0.021941472 0.013801599 0.029333781 -0.0012834897 -0.001097903 0.018856551 0.00845306
0.0026335553 0.008431825 0.016137991 0.01128301 -0.0022297434 0.0076201274 0.005825254 -0.018355297
-0.0042087384 -0.017771348 -0.027539546 -0.021040494 -0.0016244653 -0.029004 -0.02141573 -0.032701124
-0.005107893 -0.014614731 -0.016311768 -0.019773126 0.0022639812 -0.0045996862 -0.0042471318 -0.02439255
-0.0003250067 0.003356256 0.015897915 0.019324549 0.004726963 0.0006428331 0.030505354 0.018626597
0.015759937 0.009228158 0.013927667 0.032117862 -0.0010282521 0.007103927 0.0045837364 -0.0003515016
-0.00818406 -0.023019968 -0.027057957 -0.010369459 0.0028466317 -0.0050218003 0.0045415726 -0.010619201
-0.004856785 -0.009734993 -0.006902048 -0.011394352 0.002400266 0.0066484637 -0.013596767 -0.0172637
00000000: 3464 b63c f992 1a3d 8f88 e83c 36be b03c
00000010: 103e c13c e501 bf3c 27b2 743c 8205 973b
00000020: 1f8c 413d 8f79 f6bc ff99 9d3b 15f9 a9bb
00000030: 31c8 b13b 6235 25bc 03fe c4bc 5b8c 7bbc
00000040: 84cf 2b3d 92f7 bfba f17e ee3c 543c d33b
00000050: 7c93 c53c d2e5 b7bc 0127 e03c 8a09 113b
00000060: 719f 34bc 25c3 273d 057e e9bc b5d9 2bbb
00000070: da50 9f3c 457a a9bb ed2c db3c 75b2 f4bb
00000080: 4800 dd3b ec9d b53b a261 a3bb 2a24 e5bb
00000090: 1e47 3e3c c354 493c 4ea3 ba3b da6f 813b
000000a0: 9d9a fdbb 86ca efb9 d21f fcbb 400e d0bb
000000b0: 5144 af38 044c 26bb c905 213b 6298 e5bb
000000c0: f597 5c3c d296 ce3b d592 c83c 83d6 da3c
000000d0: ae62 323d 7761 5a3d 6626 47bc e775 9c3c
000000e0: 8f0c 4db9 95d9 5c3c 7436 3b3c 4e6b 473c
000000f0: bf63 203d 3cba 3ebb c2c4 03bc 4a74 8f3a
00000100: f40c 7ebd 59c8 47bd 33d9 84bc 6218 aabc
00000110: f5c9 8bbd 471b 05bd b5f1 643c cc67 babc
00000120: 7eff 4a3c 1d32 aa3b 6ded 523b 15cb db3c
00000130: 1131 cf3c 4d4e 2f3c eef4 6f3d 62f0 50bd
00000140: c33a 8e3d 7656 bf3c abd2 113b 02a3 acbc
00000150: d8ec 653d c4d0 283d 5daa d93c c37f dfbc
00000160: b811 ec3c de1d bebb ce2f 48bc 0afe cd3c
00000170: 9ef0 84bd 0ee7 56bd b4bb d4bb e541 13bd
00000180: 9bc1 56bd 02a5 57bd 8894 3bbd 6639 443c
00000190: 4617 60bd 48ca 89bc a8e9 b6bc 7484 593c
000001a0: a7f4 44bd 9dc8 11bd bf64 adbb d23a 87bc
000001b0: c927 483d 5ad4 fcbb 1144 4d3d 8551 dc3c
000001c0: a338 b03c 67aa fabb caa9 8cbb c401 96ba
000001d0: 7473 ed3c 1731 473b c888 1abc 5462 f1bb
000001e0: 9d58 a33c 1d1b a23c 5e61 343c 08a5 d83c
000001f0: 4b0c bb3c 00a0 813a 8721 a33a a5b4 9039
00000200: 9f8e 69b9 44ca dabb 907f 65bc a150 06bb
00000210: d798 37bc 89e7 a2bc bf2d f8bc a6be bebc
00000220: 4e1b a6bb 6456 4f3c 916b 6bbc 858d 02bc
00000230: 674c 6aba 012f 5fbb 9610 53bb 765a 843c
00000240: 7609 22bc f750 40bc 4fde bdbc a679 7fbc
00000250: 6dc0 993a f794 f5bb 9b9d 93bc ab2e 47bc
00000260: c176 043c 917f 0abc 670c 0abc be2d 3d3a
00000270: 5865 a13b 5235 00bc 56e4 903a 8d18 003b
00000280: 38ef 74ba 8acc d1bb 4122 24bc ca53 dcbb
00000290: 01b1 7b3b e826 7b3a f95a 1fbb d93d 87bb
000002a0: 1b53 1bbb 32fb 46bb 709d 1bbb 6eb8 dcba
000002b0: 161a a43b 1149 0cba 34a3 c7b9 8e7d 14bb
000002c0: d81a 2abc 4200 86bc 3109 c0bc 1f1d d8bc
000002d0: 13cd ec39 d0dd 40bc 9300 96bc ab73 c1bc
000002e0: dbf8 b4bb a0bc d7bb e2d6 15bc 9f93 e2bb
000002f0: da7e b23c df03 bdbc 3254 29bc 4c94 f6bb
00000300: 23da 3f3b 9abe b33c 1a20 623c 664d f03c
00000310: c53a a8ba 83e7 8fba 0e79 9a3c b47e 0a3c
00000320: ba97 2c3b a325 0a3c d233 843c 60dc 383c
00000330: e320 12bb 43b2 f93b c6e1 be3b d95d 96bc
00000340: 75e9 89bb 3895 91bc 9d9a e1bc 1d5d acbc
00000350: 03ec d4ba cc99 edbc 0a70 afbc 9df1 05bd
00000360: 1d60 a7bb a072 6fbc 42a0 85bc 40fb a1bc
00000370: 4d5f 143b f7b8 96bb 862b 8bbb e3d2 c7bc
00000380: a965 aab9 a2f4 5b3b 583c 823c 844e 9e3c
00000390: a4e4 9a3b cd83 283a 5de6 f93c ce96 983c
000003a0: fc1a 813c b331 173c df30 643c 058e 033d
000003b0: 6ac6 86ba 0fc8 e83b 2b33 963b bf49 b8b9
000003c0: 7016 06bc 5f94 bcbc a6a8 ddbc aae4 29bc
000003d0: 8e8e 3a3b ea8d a4bb 79d1 943b 28fc 2dbc
000003e0: aa25 9fbb 857f 1fbc 932a e2bb 60af 3abc
000003f0: c84d 1d3b 5bdb d93b f9c4 5ebc 9a6c 8dbc

convt1.bias f4 [8]
0.019805025 -0.00073546934 -0.00014155052 0.0058969245 0.030596035 -0.0040665683 -0.031456076 0.0007293757
00000000: 263e a23c 83cc 40ba 2e6d 14b9 fd3a c13b
00000010: 89a4 fa3c d940 85bb 16d8 00bd 9333 3f3a
